examples/models/borc_2d/objective_gp_0.pth (torch, 6306 bytes, 5 tensors)

covar_module.base_kernel.raw_lengthscale f4 [1, 2]
000000 09 11 3e bf 9b f2 43 bf
       -0.74244744 -0.7654206

train_x f4 [100, 2]
000000 dd 6b 76 3f 25 ac 10 3f e7 e3 5b 3e 97 57 49 3e
       0.96258336 0.5651267 0.21473657 0.19662319
000010 08 05 15 3f 59 ed 6e 3e 52 86 22 3f a1 ce 9e 3d
       0.582108 0.23332728 0.63486207 0.07754255
000020 5d 9c 6b 3f 5e 83 08 3f 1e 89 cd 3e 73 91 c0 3e
       0.92035466 0.5332545 0.40143675 0.3761097
000030 00 00 00 00 b8 71 4b 3f 5d b8 68 3f e7 93 0c 3f
       0.0 0.79470396 0.90906316 0.5491318
000040 5c f2 93 3e 00 00 80 3f b4 4d 0b 3f d3 d8 30 3f
       0.28895843 1.0 0.5441544 0.6908085
000050 c2 66 d9 3d 23 6a 4c 3f 7a 5d b3 3e 57 cd ae 3c
       0.106153026 0.7984945 0.35032254 0.021338148
000060 57 ae 2e 3f b0 60 23 3f 2e 80 b0 3e 38 64 e9 3e
       0.6823477 0.6381941 0.34472793 0.45584273
000070 9e 23 71 3f cf 85 4e 3e e7 aa f6 3e 06 85 73 3e
       0.9419497 0.20168231 0.48177263 0.23781213
000080 88 2b 73 3e 7f 27 3c 3f c4 f5 05 3f 6b fb 01 3f
       0.23747075 0.73497766 0.52328134 0.5077426
000090 35 d5 f2 3d c9 1a 06 3f 86 d4 9c 3e fc fe 04 3f
       0.11857072 0.5238462 0.30630893 0.51951575
0000a0 59 35 1e 3d e5 18 2a 3f 3f e7 c2 3e 7b 13 6e 3f
       0.038625095 0.66444236 0.38067052 0.92998475
0000b0 33 ca 24 3e ac 06 78 3f f6 00 7a 3d 65 d3 ee 3e
       0.16092758 0.9688518 0.061036073 0.46645656
0000c0 cc 87 2a 3e 14 ab 9b 3e 74 b2 3e 3f dc 31 d0 3e
       0.16653365 0.3040396 0.7449105 0.4066304
0000d0 64 c0 3c 3f cd cf 33 3f c0 b5 37 3d 3e 54 a6 3e
       0.73731065 0.70238954 0.044851065 0.32486147
0000e0 6b 1d de 3e 89 bd 1f 3f 08 5c 5c 3f db 5e d3 3e
       0.4338182 0.6239858 0.8607793 0.41283306
0000f0 c6 53 38 3f e3 14 15 3f fe a3 78 3f 2b e7 f4 3e
       0.7200283 0.58234996 0.9712523 0.47832617
000100 40 0c d7 3d 96 d9 45 3f 1f 81 4d 3f c5 8d 74 3f
       0.105003834 0.77285135 0.8027515 0.95528823
000110 88 eb 61 3f a3 df 1d 3f 94 db 0d 3f d0 19 48 3f
       0.8825002 0.6166937 0.55413175 0.78164387
000120 3b 4b 42 3e 1d 43 ce 3d 22 3b 8a 3e c0 2f 59 3f
       0.1897401 0.100713946 0.2699824 0.84838486
000130 ba 39 32 3f 6f d4 97 3e 64 0c 03 3f 46 cb dd 3c
       0.69619334 0.2965426 0.5119078 0.027074467
000140 11 4b 17 3e 59 5c 62 3d 1b 0e 18 3f 5b 6b 29 3e
       0.1477473 0.05526385 0.59396523 0.16544859
000150 5d d7 f0 3e e7 7d 0d 3f c9 6e bc 3e 54 cc 41 3f
       0.4703931 0.55270237 0.36803272 0.75702405
000160 7f d9 6e 3f 9c 89 1d 3e 41 d2 84 3e 70 df eb 3d
       0.9330062 0.15384525 0.2594166 0.11517227
000170 9e 36 20 3f 85 33 26 3f 0b ea 29 3f 57 22 3b 3f
       0.6258334 0.6492236 0.66372746 0.73099273
000180 e1 89 f3 3e 52 83 88 3d 51 71 56 3f 95 e8 51 3f
       0.4756613 0.06665672 0.8376666 0.81995517
000190 69 14 14 3f 7d 8f 84 3e 7c b1 3a 3f 02 a7 8f 3e
       0.57843643 0.25890723 0.7292707 0.28057104
0001a0 99 b0 1d 3f ed 82 1b 3f 69 33 09 3f ff fd 2d 3f
       0.6159759 0.6074665 0.5359407 0.6796569
0001b0 9d c0 bb 3d c2 10 4e 3f c1 04 29 3f ba d7 69 3f
       0.091675974 0.8049432 0.6602288 0.913448
0001c0 e3 c8 a2 3e 04 51 53 3f 46 49 8e 3e a2 95 68 3e
       0.3179389 0.82545495 0.27790278 0.2271333
0001d0 2e af 4c 3e 9f ee c5 3e 04 81 25 3f 96 0b 02 3e
       0.19988701 0.38658616 0.6464999 0.12699732
0001e0 d7 ac 01 3f 07 59 5e 3f 4d 50 31 3f 8e 89 5c 3f
       0.5065436 0.86854595 0.69263154 0.8614739
0001f0 1e 40 93 3d 73 7b 3f 3f 2d 5a 54 3c f2 5c ca 3e
       0.07189964 0.74797744 0.012960953 0.39524037
000200 bf 68 35 3f 00 00 00 00 45 f2 44 3f ff b8 af 3e
       0.70862955 0.0 0.76932174 0.34320828
000210 80 7c c9 3e 6b 69 63 3f 00 00 80 3f ad cf 71 3f
       0.39352798 0.8883273 1.0 0.94457513
000220 34 70 55 3f 55 70 18 3f d4 3c 37 3e 85 d5 81 3e
       0.83374333 0.59546405 0.17894298 0.25358215
000230 73 26 59 3f 57 46 66 3f e1 e9 67 3e a1 3b 37 3f
       0.84824294 0.8995108 0.22647811 0.7157536
000240 19 5a 12 3f c4 ef 11 3e c1 3e 06 3d 85 16 75 3f
       0.5716873 0.1425162 0.03277469 0.9573749
000250 5e fb ea 3e f6 c4 16 3d e6 29 d7 3e 20 f7 4b 3d
       0.45894903 0.03680893 0.42024153 0.049796224
000260 54 dd 74 3f 06 cf 4a 3c 23 45 ae 3d ab 73 28 3f
       0.9565022 0.01237846 0.085092805 0.65801495
000270 3d e3 bf 3e eb e6 54 3e 0f d5 a3 3e 33 73 e2 3e
       0.37478057 0.20791213 0.31998488 0.44228515
000280 bd d5 0e 3e 8c b1 bb 3d 64 13 a1 3c 23 07 e1 3e
       0.13948722 0.09164724 0.019662566 0.43950757
000290 51 b0 fd 3e 09 e1 a8 3e c7 c8 ac 3e 3f 5d 37 3e
       0.4954858 0.32984188 0.3374693 0.17906664
0002a0 dd 3b 50 3f 04 09 9f 3e 84 60 5f 3f 20 7f 8d 3e
       0.81341344 0.31061566 0.87256646 0.2763605
0002b0 79 6e 05 3e 61 a5 6a 3f c7 08 52 3f 6d 58 7e 3f
       0.13030423 0.916586 0.82044643 0.9935368
0002c0 27 0e 66 3f 3f 0b 35 3f 3a be 1a 3f cf 3c b6 3e
       0.89865345 0.70720285 0.6044651 0.35593268
0002d0 8b 28 d4 3e 56 c3 fa 3e fc d5 7d 3f c0 64 62 3f
       0.41437182 0.48977154 0.9915464 0.8843498
0002e0 05 5b 7e 3e 22 f2 d6 3e 18 36 6f 3e 2b dd 32 3e
       0.24839409 0.41981608 0.23360479 0.17467181
0002f0 3e 75 4a 3f a7 fb 7a 3f e5 53 e5 3e 27 db fb 3e
       0.7908515 0.9804024 0.4479057 0.49190637
000300 f8 1c 41 3f 1d ea 12 3f c4 a0 7a 3f fe 19 ba 3e
       0.7543483 0.5738848 0.9790156 0.36347955
000310 49 7d 48 3f 4c f1 55 3f 25 56 65 3f f6 51 f9 3d
       0.7831617 0.83571315 0.8958457 0.12173836

train_y f4 [100]
000000 31 54 0c bf 41 55 54 3f f4 dd 10 3f 9e 98 21 bf
       -0.54815966 0.8294259 0.56588674 -0.631235
000010 f4 e5 90 3d ce 45 37 3f 40 9b d7 bf 2f f9 36 3e
       0.0707511 0.7159089 -1.6844254 0.17868493
000020 7f ba a7 bf 56 f0 52 3f ee 83 5c 3d 6b 1e 99 bf
       -1.3103789 0.82397974 0.053836755 -1.1962408
000030 1e b6 66 3f 3f 90 3e 3f 58 ce 89 be 2c 58 0f 3f
       0.9012164 0.7443885 -0.2691524 0.55993915
000040 67 05 5b 3f e5 55 31 3f e3 a5 6a 3e 79 2d 45 3f
       0.8555512 0.6927169 0.22914843 0.7702251
000050 e1 5a 46 bf e8 00 3f be b5 64 7c bf bf 3b ad be
       -0.7748242 -0.1865269 -0.98591167 -0.33834645
000060 a5 1e 49 3f 7d c0 67 3f f2 46 5e 3f 38 b3 7f be
       0.78562385 0.9052809 0.86827004 -0.2497071
000070 56 a1 48 3f 27 76 26 3f bc 97 66 3f b9 56 15 bf
       0.7837118 0.65024036 0.9007528 -0.58335453
000080 1b d8 c4 3d 73 3d b2 bf d0 9b bc 3e bf 51 3a 3f
       0.09611531 -1.3925003 0.36837626 0.72780985
000090 d9 0f 9f 3e 00 b6 1c 3f 74 7c 55 3f 7d 74 c0 bf
       0.31066778 0.6121521 0.83393025 -1.5035549
0000a0 c5 6b 6e be 4d 7f 82 3e 03 88 35 3f 1c 4e 5d 3f
       -0.23283298 0.25487748 0.7091066 0.8644731
0000b0 66 80 ee be c4 b2 b9 3e 62 45 5d 3f 57 74 5a 3f
       -0.46582335 0.362692 0.86433995 0.8533377
0000c0 eb cf 3f bf 08 50 c1 3d ed 8b 20 3f c6 c9 57 3f
       -0.7492663 0.09439093 0.6271351 0.84292257
0000d0 5b 9b 55 3f bc 9d 51 3f 86 5b ff bd e1 36 8b be
       0.8344018 0.8188131 -0.124686286 -0.27190307
0000e0 b1 d5 39 3f 0c 3c 58 3f 4d 20 44 3f 55 5f 71 bc
       0.7259169 0.84466624 0.7661179 -0.014732202
0000f0 a9 ba 9c 3e c2 3d 83 3e 3c a2 8b be d3 bd 78 bf
       0.3061116 0.25633055 -0.27272213 -0.9716465
000100 1c 57 08 c0 9f 19 67 3f ab c0 83 3e 10 94 80 c0
       -2.1303167 0.9027347 0.25732931 -4.018074
000110 9b 40 31 3f 90 8a 5a 3f f4 f4 49 bf 1a e9 55 3f
       0.69239205 0.8536768 -0.78889394 0.8355881
000120 05 f7 8d 3d 1c 04 13 c0 b5 68 9c bf ee d3 65 bf
       0.06931881 -2.2971258 -1.2219454 -0.89776504
000130 74 8c 3a c0 13 0c bc bd 57 8b 1e 3f b3 47 44 3f
       -2.9148226 -0.091819905 0.61931366 0.76671904
000140 f2 08 1f 3e ec 23 74 bf 7c 4f 2a 3f a0 e6 16 3f
       0.15530756 -0.9536731 0.66527534 0.58945656
000150 a6 ac 54 3f 0c c8 0f 3f c7 48 ef be 54 11 18 c0
       0.8307594 0.5616462 -0.46735212 -2.3760576
000160 8e d1 96 3d 4a 64 3f 3f 1b 9c 31 3f be d9 30 c0
       0.07364188 0.74762404 0.69378823 -2.76329
000170 67 21 4b 3f 07 02 41 3f d1 43 ee bf 4f d2 2d 3f
       0.7934784 0.7539372 -1.8614446 0.6789903
000180 11 e1 63 3f b2 6f 16 bf c3 24 85 3e 4a b4 d8 be
       0.890153 -0.58764184 0.2600461 -0.4232505

min f4 [1, 2]
000000 8d a8 e3 c0 a5 bc e3 c0
       -7.114325 -7.116778

max f4 [1, 2]
000000 f2 da e2 40 ff f7 e2 40
       7.0892267 7.092773
