examples/models/gp_noisy/gp_noisy_2d.pth (torch, 6901 bytes, 5 tensors)

covar_module.base_kernel.raw_lengthscale f4 [1, 2]
000000 95 02 0b 42 93 d7 d3 bf
       34.75252 -1.6550163

train_x f4 [40, 2]
000000 38 8e 63 3e 38 8e e3 3e 1c c7 71 3f 00 00 00 3f
       0.22222221 0.44444442 0.9444444 0.5
000010 00 00 80 3f 38 8e 63 3e 00 00 00 00 00 00 80 3f
       1.0 0.22222221 0.0 1.0
000020 38 8e e3 3d 8e e3 38 3f 55 55 55 3f aa aa 2a 3e
       0.111111104 0.7222222 0.8333333 0.16666666
000030 1c c7 71 3f aa aa aa 3e aa aa 2a 3f 00 00 00 00
       0.9444444 0.3333333 0.6666666 0.0
000040 38 8e 63 3e aa aa 2a 3e aa aa aa 3e 38 8e e3 3d
       0.22222221 0.16666666 0.3333333 0.111111104
000050 aa aa 2a 3e aa aa 2a 3f 38 8e e3 3d 55 55 55 3f
       0.16666666 0.6666666 0.111111104 0.8333333
000060 8e e3 38 3f 71 1c c7 3e 38 8e e3 3d 38 8e e3 3d
       0.7222222 0.38888887 0.111111104 0.111111104
000070 00 00 80 3f e3 38 0e 3f 72 1c 47 3f 72 1c 47 3f
       1.0 0.5555555 0.7777778 0.7777778
000080 72 1c 47 3f 38 8e 63 3e 71 1c c7 3e 38 8e 63 3e
       0.7777778 0.22222221 0.38888887 0.22222221
000090 e3 38 8e 3e 38 8e 63 3f e3 38 8e 3e 71 1c c7 3e
       0.27777776 0.88888884 0.27777776 0.38888887
0000a0 ff ff ff 3e aa aa 2a 3e aa aa 2a 3e 00 00 80 3f
       0.49999997 0.16666666 0.16666666 1.0
0000b0 71 1c c7 3e 00 00 80 3f aa aa 2a 3f aa aa 2a 3f
       0.38888887 1.0 0.6666666 0.6666666
0000c0 72 1c 47 3f 00 00 80 3f e3 38 8e 3e e3 38 8e 3e
       0.7777778 1.0 0.27777776 0.27777776
0000d0 aa aa 2a 3f e3 38 8e 3e 38 8e 63 3e 38 8e 63 3e
       0.6666666 0.27777776 0.22222221 0.22222221
0000e0 aa aa aa 3e 38 8e 63 3d 00 00 00 00 38 8e 63 3d
       0.3333333 0.055555552 0.0 0.055555552
0000f0 38 8e e3 3e 00 00 00 3f 55 55 55 3f 38 8e e3 3e
       0.44444442 0.5 0.8333333 0.44444442
000100 e3 38 0e 3f 00 00 00 3f aa aa 2a 3f 1c c7 71 3f
       0.5555555 0.5 0.6666666 0.9444444
000110 1c c7 71 3f 00 00 80 3f aa aa aa 3e c7 71 1c 3f
       0.9444444 1.0 0.3333333 0.6111111
000120 72 1c 47 3f 38 8e e3 3d 00 00 80 3f 38 8e e3 3e
       0.7777778 0.111111104 1.0 0.44444442
000130 aa aa 2a 3f 72 1c 47 3f c7 71 1c 3f e3 38 0e 3f
       0.6666666 0.7777778 0.6111111 0.5555555

train_y f4 [40]
000000 19 d3 16 bf d6 7c da be 9d 38 a5 be 9b 59 67 40
       -0.5891586 -0.42673367 -0.32269755 3.614844
000010 4a d0 7f 3d 12 ff 41 be be 91 34 bf cd f8 9b 3f
       0.0624545 -0.18944958 -0.70534885 1.2185303
000020 f2 21 a1 bf 57 30 ad be 29 b8 12 bf 13 67 b6 3e
       -1.2588484 -0.33825943 -0.57312256 0.35625514
000030 69 bd 41 bf 55 0d fa be 4d 18 b4 3c 4c de 11 bf
       -0.7567964 -0.48838297 0.021984244 -0.56979823
000040 7a e8 63 bf e1 ce 1a be 3e fb b6 bd b4 9c e1 be
       -0.89026606 -0.1511798 -0.089346394 -0.44064867
000050 82 2f 28 bf 03 d3 b3 3f 80 8b b4 3f f5 75 03 bf
       -0.6569749 1.4048771 1.4105072 -0.51351863
000060 52 08 0d 40 e4 f6 10 bf 0d a9 e3 be c0 b0 21 bf
       2.2036328 -0.56626725 -0.44464913 -0.63160324
000070 8d 85 96 be ce df cf 3e 1e 68 1a bf 99 f5 0f bf
       -0.29398766 0.40600437 -0.6031512 -0.5623413
000080 2e 16 d6 be 85 35 34 3f 88 cd 1d 40 e4 64 bd be
       -0.41813797 0.70394164 2.4656696 -0.36991036
000090 b6 fa 1e bf 37 f4 23 3d 1c f2 0f bf 5e 27 00 3e
       -0.62101305 0.040027823 -0.56228805 0.12515017

min f4 [1, 2]
000000 00 00 c0 c0 1b ca ab c0
       -6.0 -5.368421

max f4 [1, 2]
000000 1b ca ab 40 00 00 c0 40
       5.368421 6.0
